models/MAC.pth (torch, 225072 bytes, 17 tensors)

net.0.weight f4 [128, 7]
000000 88 40 1c bd 9d 5d 83 3e 8c 75 91 be d3 8b f6 bd
       -0.03814748 0.2565736 -0.28409994 -0.12038388
000010 af 63 d8 bd 2c 3e 95 bd 2b b8 0e be 54 d8 a5 3e
       -0.10565888 -0.07287249 -0.13937442 0.32391608
000020 34 70 e3 3d a6 79 de bd 81 3e 89 bd 61 aa 2f 3d
       0.111053854 -0.10863046 -0.06701375 0.042887095
000030 6a b1 40 bc d4 83 13 bc 1e 00 60 bd 66 5c cf 3d
       -0.011761049 -0.009003598 -0.05468761 0.101250455
000040 0a 94 51 3d b4 f9 08 be 9e 13 02 be d7 b4 ba bd
       0.05116657 -0.13376504 -0.12702796 -0.09116524
000050 cb 4e 06 3e 9e a0 c6 bd 6c 89 25 3e 73 e6 aa bd
       0.13115995 -0.09698604 0.16165704 -0.08344736
000060 b2 de c9 3d 7e 72 76 be 4c cb de bc d3 cb dc 3c
       0.09856929 -0.24067113 -0.027196549 0.02695266
000070 3b 9b 3d 3d 0f 91 8c 3d a9 52 74 3e 2e c0 39 3e
       0.046290617 0.06863605 0.23859657 0.18139717
000080 40 6d 1e 3e 8f 0d cf 3c 3e 37 2b bd 3c 91 35 3e
       0.15471363 0.02527502 -0.04180073 0.17731184
000090 af 09 34 3e 71 00 00 be cd 5b 89 be fb c3 82 bc
       0.17581819 -0.12500168 -0.2682785 -0.015962591
0000a0 ce 0a 6f bc 56 15 e4 bb 26 8b cf 36 43 c1 56 b7
       -0.014589978 -0.0069605513 6.1852797e-06 -1.2800391e-05
0000b0 c9 58 53 35 62 7b 00 b8 25 83 3e b7 17 80 59 b4
       7.8732825e-07 -3.0632487e-05 -1.1355417e-05 -2.0256299e-07
0000c0 34 25 d3 b4 4d 00 72 bd 24 ce da bd 05 41 7f 3d
       -3.9328881e-07 -0.059082318 -0.106838495 0.062317867
0000d0 6a 79 2a bd 89 3e 07 3c bb 31 a1 bb 98 67 75 3c
       -0.041619696 0.008254656 -0.0049192584 0.014978312
0000e0 47 9b f8 3d 3e 03 12 3e 07 06 52 3e c6 a5 38 be
       0.12138992 0.1425905 0.20510112 -0.18031988
0000f0 a4 77 63 be 0b fc b7 b9 6e 2d 3f 3c 7e 19 6f 3e
       -0.22213608 -0.00035092267 0.011668546 0.23349568
000100 6e 4a 81 3e 9c 82 8c be 78 32 94 be 5b 3e 82 3e
       0.25252098 -0.27443397 -0.28944755 0.25438198
000110 8e 21 94 bd e5 77 ff 3d 65 d6 dd bc 01 96 b4 bd
       -0.072329625 0.1247404 -0.02707977 -0.088176735
000120 bd 88 69 3e 48 96 9b bd 1a dd 75 3e 3b 3b b4 bd
       0.22806068 -0.07597023 0.24010125 -0.0880036
000130 d0 d8 3e bd e9 ed a7 be a9 1e 72 3d 85 26 90 3e
       -0.046593487 -0.327987 0.05911127 0.28154388
000140 b6 5b c1 bc 8b bf 01 bd 60 08 53 3d 72 e6 91 bc
       -0.023603301 -0.03167681 0.05152166 -0.01781008
000150 7c 65 50 be 9c 86 a5 3e 1d b0 eb 3d 2f 5d b5 be
       -0.20351213 0.3232926 0.115082 -0.35422656
000160 db 05 60 be c9 12 fb 3b e9 36 a2 3c 9f 23 0f bb
       -0.21877234 0.0076621515 0.019801574 -0.00218413
000170 3f e7 ed bb e1 cc d0 3b 56 d1 19 3c 75 22 b7 3b
       -0.0072602327 0.0063720797 0.0093882885 0.0055888244
000180 02 a4 61 b9 95 b5 2f bc f9 35 b0 3c 9d 85 b6 be
       -0.0002151877 -0.010724445 0.021510111 -0.35648814
000190 38 4e cd 3d 6a fa 80 3e 76 40 0b 3e 9f e1 a1 3b
       0.10024685 0.2519105 0.13598809 0.004940226
0001a0 1e d7 11 3c ff 4a 76 be 22 0b 11 3e c7 c9 e8 bb
       0.008901386 -0.24052046 0.14164403 -0.007104132
0001b0 bc 8a 9c 3c db 01 83 3d ce cd c5 bc d4 3a 2f bd
       0.019109122 0.06396838 -0.024145987 -0.042780712
0001c0 35 1b 64 3e 46 6f 06 3e 0e e5 b0 bd a8 e6 a3 3d
       0.22276004 0.13128385 -0.08637439 0.080029786
0001d0 3d b0 47 3e 22 d1 3d 3c 17 a5 b1 bc 67 a2 c8 bd
       0.19500823 0.011585506 -0.021685166 -0.09796601
0001e0 66 6e 77 3d c4 51 94 3d f9 7f 8e bd 47 c5 8a 3c
       0.06040802 0.07242158 -0.069580026 0.016939772
0001f0 3d 05 8e bd 86 b0 6c 3d 11 3b 5e 3d d7 20 bb be
       -0.06934593 0.057785533 0.05425555 -0.36548492
000200 76 cc 3f be 74 e7 58 3e ba 6f b9 3e 97 55 af bb
       -0.1873034 0.21182042 0.36218053 -0.0053507793
000210 30 87 ae 3c 4c 30 a2 3e 7c ba a5 be 41 ea f6 3d
       0.021304697 0.31677473 -0.3236884 0.12056399
000220 a8 26 d1 3e 6c 46 87 3e 56 93 96 bd b5 e9 58 bd
       0.40849805 0.26420915 -0.07352321 -0.052957255
000230 5e 15 c4 bd 79 ab 81 bd f8 08 72 3e 7e fb d2 3c
       -0.09574388 -0.06331534 0.23636234 0.025754686
000240 1b 98 88 3b f7 45 57 3d c6 ae 97 3d 0b d4 77 3c
       0.004168523 0.052556958 0.07406382 0.015126239
000250 41 04 84 3e 8d 7d 11 3e d4 f5 d4 bd ae e3 80 3e
       0.25784495 0.1420805 -0.103984505 0.25173706
000260 ec 1a 2a bc 74 01 4a bd b2 21 1f be c3 af 8f bc
       -0.010382395 -0.049317792 -0.15540197 -0.017539864
000270 0b af d8 bd ee b4 2d be 54 6b c4 bc e3 a6 11 bd
       -0.10580262 -0.1696355 -0.02397696 -0.035559546
000280 bc e2 24 bc 87 57 8f 3e f8 ae 04 3e 26 e8 8f be
       -0.010063823 0.27996466 0.1295737 -0.28106803
000290 6d 9f b0 bd 8a 40 17 be 63 75 9a bb 52 19 ee 3a
       -0.08624158 -0.14770713 -0.0047137006 0.0018165505
0002a0 a9 5d f3 38 c7 c2 78 39 2e 63 bd 38 40 19 91 39
       0.000116045885 0.00023723683 9.030696e-05 0.00027675368
0002b0 51 6b b4 ba 98 c4 6a 36 b6 d5 f5 b4 08 66 81 be
       -0.0013764893 3.498315e-06 -4.57903e-07 -0.25273156
0002c0 a6 6a 9b be d0 fb 83 be a9 e9 80 3e f9 20 fd 3c
       -0.30354804 -0.25778055 0.2517827 0.030899512
0002d0 c6 31 a8 3b 75 48 cf 3c b5 7b 0a be c1 68 d3 bc
       0.0051328866 0.025303105 -0.13523753 -0.025806786
0002e0 66 2b 69 be 4a ae a9 be 96 9d 00 be 35 82 05 3e
       -0.22770461 -0.33140785 -0.12560114 0.13037951
0002f0 e2 ef 2d 3d fb f8 95 bd 86 de ce 3e 47 03 9a be
       0.0424651 -0.0732288 0.40404147 -0.30080625
000300 11 88 b7 be 42 55 f4 3d f6 7e 76 bd c6 c2 20 bc
       -0.35845998 0.11930324 -0.060179673 -0.009812063
000310 42 af e6 bd 0b 28 a4 3e 09 93 bf 3d d5 54 86 bc
       -0.112638965 0.320618 0.093542166 -0.016397873
000320 10 22 36 be bb 8b 68 bc e0 61 93 38 32 d8 bf 3d
       -0.17786431 -0.014193471 7.027737e-05 0.09367408
000330 29 2d a9 be 29 a5 55 be 03 de 99 3e 19 16 ed bd
       -0.33042267 -0.20863785 0.30052194 -0.115764804
000340 5e 48 f7 bc 05 86 b3 3c bc 98 6a bd bf 75 60 bd
       -0.030185875 0.021914491 -0.057274565 -0.05479979
000350 61 86 e5 3c 95 a2 82 3e 4d 22 a6 3d b9 e9 0d bb
       0.028018178 0.25514665 0.08112011 -0.0021654202
000360 7e 4a c6 bc a9 47 95 be 62 07 37 be fe 58 1d 3d
       -0.024205443 -0.29156235 -0.1787391 0.038414948
000370 f2 44 e6 bd 84 2e 2f 3e c7 e0 2c bd 23 93 73 3b
       -0.11243619 0.17107588 -0.042206552 0.0037166558
000380 b8 0b d5 3d 98 97 1f 3e f5 62 28 3d 5a 7f 16 be
       0.10402626 0.15585172 0.041109998 -0.14697018
000390 90 cb 0b 3e 62 f5 02 bd 75 81 42 3d 2c fb e2 bb
       0.13651872 -0.031972297 0.04748674 -0.0069269147
0003a0 27 85 32 be 45 91 2c 3e 8d 01 b5 3e 7e 9c 57 3e
       -0.17433606 0.16852291 0.35352746 0.21055791
0003b0 96 1d 9b 3d e1 65 21 bc c3 dc a0 be a0 1e 4f bd
       0.075740024 -0.00985095 -0.31418428 -0.050566316
0003c0 cd d6 b7 3e c8 bf 81 3d ba 88 18 3e cf 8f eb 3c
       0.35906067 0.063354075 0.14895907 0.028755097
0003d0 be 9d 8a 3c d7 fb b0 3d cb 7a 8c be 17 15 2f be
       0.01692092 0.08641785 -0.27437434 -0.17097889
0003e0 73 c9 bc 3e eb cb a5 bd 74 6f fa bd f0 ea c3 bd
       0.36872444 -0.08095535 -0.12228289 -0.09566295
0003f0 0e fc ce 3d 1e 8d 30 3e ad 42 a5 bc 5f 29 9f 3d
       0.10106669 0.17241332 -0.020173395 0.07771563

net.0.bias f4 [128]
000000 23 7e aa 3e d3 f7 53 3d 37 96 87 3e b8 0f d6 3d
       0.3329936 0.051750015 0.26481792 0.10452217
000010 81 64 32 be 2e ad 7d bd db 57 40 ba 07 86 a9 bd
       -0.17421152 -0.061932735 -0.000733731 -0.08277517
000020 19 5f 65 3a f1 ee 04 3e 76 60 b1 3e ec 57 16 3e
       0.00087498274 0.12981774 0.34643906 0.14681977
000030 cc 61 22 3e 06 b0 4b bc b2 ac db 3c 71 58 23 be
       0.15857619 -0.012432104 0.026815746 -0.15951706
000040 3e 44 77 be 06 53 5d 3d b6 e4 9c bb 86 92 a3 bc
       -0.24147126 0.054034255 -0.0047880067 -0.019967329
000050 45 f8 fc bd 16 07 86 bd aa 46 3a be c4 dc 9a 3d
       -0.12352041 -0.0654432 -0.18191019 0.07561639
000060 9c b4 67 bb 2f 5c 28 be 15 57 8e 3e 7c 99 1f 3e
       -0.0035355454 -0.16441415 0.27800813 0.15585893
000070 91 b0 1c 3e e1 67 14 3e 5e 23 1c 3d 37 b7 1c 3e
       0.1530173 0.14492752 0.038119666 0.15304266
000080 af af f5 bd fe 4b 93 3d 30 c4 0d be be 9e a9 3e
       -0.119963996 0.07192229 -0.13844371 0.33128923
000090 14 dc ef bd 23 dc 03 bc ee be 3c 3e 1b a6 5a bd
       -0.117118984 -0.00804809 0.18432209 -0.053381067
0000a0 de 32 4c 3e 0c b2 8a 3d 4f ad 1b bd b5 03 93 bd
       0.1994128 0.06772241 -0.038007077 -0.071784414
0000b0 16 9c 1a 3e bb fd a7 3d 42 b3 11 3e 21 9b 81 3e
       0.15098605 0.08202692 0.14228538 0.25313666
0000c0 d1 ce 54 3e 09 34 56 3e d7 ad e6 bc ba 96 b0 bc
       0.20782019 0.20918287 -0.028159065 -0.021556247
0000d0 c9 a5 6f 3e ce 9d 36 3e d9 9c 17 3e 9d c9 30 be
       0.23403086 0.17833635 0.14805926 -0.1726441
0000e0 c3 98 bb 3c fe 23 b6 3d c8 22 f2 bd de 3b 67 bd
       0.02289999 0.08893584 -0.1182304 -0.05645358
0000f0 2b 18 8c 3e 6c 2d ad 3e f3 3f a8 3e a1 a3 75 b5
       0.2736219 0.33823717 0.3286129 -9.1507724e-07
000100 d0 9f 64 be 92 25 0d 3e 9c 3a dd bd c9 c1 cb 3e
       -0.22326589 0.13783863 -0.108021945 0.39796284
000110 70 c1 09 bd 8a 45 df bb 69 3f 47 bd a1 3a 6b be
       -0.033631742 -0.0068137096 -0.048644457 -0.22971584
000120 72 76 de bc d9 10 8b 3e 64 77 c8 3e 0d c8 dc bd
       -0.027156089 0.2716129 0.39153588 -0.10780344
000130 6f c0 1a be 71 da 66 bd 17 f5 8b b5 07 80 06 bc
       -0.1511247 -0.056360666 -1.0427638e-06 -0.008209235
000140 f1 c4 99 3d ca 3a 35 3e 59 5e 80 3e 5e 7c 53 be
       0.07508267 0.17698207 0.25071982 -0.20652911
000150 41 95 ce bd 2b 7b 66 bd 45 bb 15 3d d9 20 6c be
       -0.10087062 -0.056269806 0.036555547 -0.23059405
000160 28 bb d1 3d 75 e5 8f b1 4d e4 8b bd 28 93 25 bc
       0.10240775 -4.187934e-09 -0.06830654 -0.010105886
000170 56 e6 6a 3e 7c 32 1b bd ed f5 a4 3c 34 11 96 bd
       0.22939429 -0.037889943 0.020136798 -0.073275
000180 38 89 9a bd 52 b0 fe 3d c6 a7 15 3e fa a5 71 be
       -0.07545704 0.12435974 0.14614782 -0.23598471
000190 46 ad f7 bd f8 11 b1 3e e8 8f 27 3c 5c 6d 53 bd
       -0.12093596 0.34584022 0.010227181 -0.051617965
0001a0 40 7e 10 be 83 d8 93 9d 52 df c4 3d a3 e1 dc bd
       -0.1411066 -3.9134444e-21 0.096129075 -0.10785224
0001b0 f2 30 0c be ca 40 6f 3e 93 a9 5c 3e 7b 0c 81 3e
       -0.13690546 0.23364559 0.21549062 0.25204834
0001c0 54 8e c4 3e 85 75 4b 3e cc 14 42 be 8b 83 42 be
       0.38389838 0.19869049 -0.18953246 -0.18995492
0001d0 93 9c 58 be 6a 07 4a 3e 48 f7 33 3d 0c f8 95 3e
       -0.21153478 0.1972939 0.043936998 0.29290807
0001e0 4f a9 44 3e b4 92 a7 3d 93 3b 8b 3d f4 a4 a2 bd
       0.19205211 0.08182278 0.06798472 -0.079416186
0001f0 33 62 38 be a6 8d 02 be b6 16 31 be 9b 0a 65 3e
       -0.1800621 -0.12749347 -0.1729382 0.22367327

net.2.weight f4 [128, 128]
000000 3e b2 c2 bc ff ef 94 3c d4 0f a8 3c aa 82 4f 3d
       -0.023766633 0.018180845 0.02051536 0.05066172
000010 a3 56 fe 3c 53 6c 27 ba fb 89 00 80 e1 3e 1c 3c
       0.031047171 -0.0006386686 -4.9498e-41 0.009536476
000020 e5 d9 be bc f8 d1 78 bd 19 97 f9 bb 1a 0c 06 3d
       -0.02329726 -0.060747117 -0.007616889 0.032726385
000030 ec 74 6c bd 35 1c 68 3a 40 fb 00 3d b3 70 1b bb
       -0.057728693 0.0008854301 0.03148961 -0.0023718297
000040 ef e3 9a bc a7 0a 84 3c ab 1b 99 3d 7a c2 6e 3d
       -0.018907515 0.01611836 0.0747598 0.058290936
000050 88 b4 80 3c 54 44 f8 3b 21 d6 23 bc 53 1d 4b bb
       0.015711084 0.0075765047 -0.009999783 -0.003099282
000060 06 9e 81 18 42 52 cd 3c 15 55 39 bd 55 3e a5 bd
       3.350528e-24 0.025063638 -0.045247156 -0.080685295
000070 2e 4e 51 bd 4d 19 aa 3d 14 c3 18 3d a5 cb 7c 3d
       -0.05109995 0.08305607 0.037295416 0.061717648
000080 62 73 a0 bb 0b 14 c1 3c b6 67 a9 39 9a a8 90 3d
       -0.004896567 0.023569128 0.00032311463 0.07063408
000090 ff 7f 22 bc e7 d3 9a bb b3 a4 93 bd 78 ff ae bb
       -0.009918212 -0.0047249678 -0.07209148 -0.005340513
0000a0 89 01 dc 3d b5 ee 6c 3c 15 25 a8 bb 62 3a 18 bb
       0.1074248 0.014461209 -0.0051313736 -0.0023228158
0000b0 2e 8c fc bc 93 30 57 bd 50 44 90 3c 80 61 e9 3c
       -0.030828562 -0.05253656 0.017610699 0.028488874
0000c0 fd d8 8b 3c 56 58 e1 3c c1 e2 53 3c 03 5c 9c 3c
       0.017071242 0.027507942 0.01293248 0.019086843
0000d0 77 7b 84 bd 49 ac 5c 3c 51 19 21 bd 60 1b fc 3a
       -0.064688616 0.01346881 -0.039330784 0.0019234233
0000e0 ca 99 26 3c ab 42 15 bb 65 1a 4b 3c 7a 6a 8d bc
       0.010168502 -0.0022775333 0.01239643 -0.017262686
0000f0 27 f5 94 bc 14 ea ea 3c e4 07 8f 3d 4a 89 00 80
       -0.018183304 0.02867607 0.06983927 -4.925e-41
000100 42 8f 23 3c f4 5c 28 bd 92 5c a8 bc 0a b5 06 bd
       0.009982886 -0.041104272 -0.020551953 -0.032887496
000110 b3 c2 40 bc 6e b7 c3 39 e6 7f 77 bb b5 6c 3d 3b
       -0.01176517 0.00037329964 -0.0037765442 0.0028903906
000120 ab af 4c ba 71 52 0d bd 43 17 44 bd d3 fb e9 bb
       -0.0007808159 -0.03450245 -0.047873747 -0.0071406155
000130 b5 b6 17 3b ba 1e 73 bc c8 12 0a 32 ed b1 cb bc
       0.0023149673 -0.014838869 8.036928e-09 -0.024865115
000140 d3 9a ef 3c 86 f9 63 3d 5d 5e ee bc ba 39 b1 bc
       0.02924863 0.055657886 -0.02909773 -0.021633971
000150 5e 4b bc bc f0 0e 35 bc e8 ff 7b 3d 6c 49 a0 3c
       -0.022985157 -0.011050925 0.061523348 0.01956626
000160 fa 30 08 bb ed 88 00 00 76 1f 05 3c a5 09 3a 3c
       -0.0020781145 4.912e-41 0.008125177 0.0113548385
000170 ca 43 aa bc 58 f2 18 bc 9b e9 15 3c 44 99 74 bb
       -0.020784277 -0.009335123 0.009149934 -0.0037322799
000180 f6 98 51 bb 80 88 8f 3d 44 cd 85 3d 39 0f ba 3c
       -0.003198204 0.07008457 0.06533292 0.022712337
000190 c2 9a d0 ba db c7 a5 3d 6f ba 73 bc b6 c1 f9 3b
       -0.0015915262 0.0809476 -0.014875992 0.007621969
0001a0 4a bf 01 3d 72 89 00 00 53 d1 12 bd d6 1e 7e 3b
       0.031676568 4.9306e-41 -0.03584416 0.0038775704
0001b0 ed d6 35 3c f0 be 23 3d 8b 55 f8 3b 73 8f 6f 3d
       0.011098606 0.039977014 0.007578557 0.058486413
0001c0 1b 14 82 3b 20 76 db 3c 70 2d 6b 3c a1 7b 9c 3b
       0.003969682 0.026789725 0.014354095 0.00477548
0001d0 34 2c 63 3c c1 f9 36 3d 04 27 45 bd ef 8a 75 3d
       0.013865519 0.044671778 -0.04813291 0.05994695
0001e0 40 19 24 3d 49 e7 8a bd ec e6 31 bc 22 7c 12 b9
       0.040063143 -0.067823954 -0.010858279 -0.00013969888
0001f0 d7 75 98 bc b9 ef 95 3c 08 9e c1 3c 26 57 61 3d
       -0.018610878 0.018302785 0.023634925 0.05501475
000200 18 76 09 3c 1b a1 81 ba 80 ba ae 3c 98 a5 6c 3b
       0.008389972 -0.0009889932 0.021329165 0.0036109444
000210 e3 0a 0f 3b d3 df 95 3b b1 8b 00 00 1b fd 79 bb
       0.0021826557 0.004573801 5.0112e-41 -0.0038145247
000220 66 9d 2a bc 91 95 81 3c b1 58 d5 3c b4 c8 1d 3b
       -0.010413503 0.01581839 0.026043268 0.0024075927
000230 56 03 a6 3c 80 eb 08 ba b7 44 19 bc a0 9c 5f 3b
       0.020265263 -0.00052230805 -0.009354762 0.0034120455
000240 12 78 07 3c c0 61 8f 3b 51 98 5e bc 0d 8e 62 bc
       0.008268373 0.0043756664 -0.01358612 -0.013827813
000250 46 56 87 bb a2 11 8c 3c a0 d3 30 3b 28 00 69 3b
       -0.0041301576 0.017098252 0.0026981607 0.0035553072
000260 ca 8a 00 80 41 9a e3 bb a9 a3 c2 bc be d7 2c 3c
       -4.9788e-41 -0.0069458787 -0.02375968 0.010549484
000270 21 e7 3d 3c 27 dd 7c bc e3 9b 63 bb 29 5a ef 3c
       0.01159075 -0.015433586 -0.0034730367 0.029217796
000280 bb 5b d1 3b f1 c0 05 ba e0 0b bf 37 f2 71 d4 bc
       0.006389109 -0.0005102298 2.2774504e-05 -0.02593324
000290 71 4a 8e 3b d9 c4 1b 3b 15 e1 b6 bb 30 36 00 bc
       0.00434237 0.0023768453 -0.005581031 -0.007825419
0002a0 09 b7 3d bb 3f 71 1b bc 85 a6 af ba fb ad c3 39
       -0.0028948209 -0.009487449 -0.0013401067 0.00037322924
0002b0 54 16 a8 bc ef 2d 8e 3c 43 dd 82 bc 8a b9 c0 bc
       -0.02051846 0.017355887 -0.015974646 -0.023525972
0002c0 ad 0f e6 3c 0f 45 c7 bc ea a9 48 bb 69 dc 00 3c
       0.028083647 -0.024324922 -0.0030618855 0.00786505
0002d0 3d 8f a6 3b eb 7b 86 3c af d0 15 bc 2b f5 f3 ba
       0.0050829933 0.01641651 -0.009143992 -0.0018612494
0002e0 20 c2 0f bc 58 dc cf bb 6e dd 48 bb ce e1 b1 3b
       -0.00877431 -0.0063434057 -0.003064956 0.0054285293
0002f0 2d 56 02 bb f9 e0 cf bb bf b0 c6 bc d2 88 00 00
       -0.001988779 -0.0063439575 -0.024254201 4.9082e-41
000300 dc 4b 0b bb ed f2 6f 39 b8 e2 85 bb 0a 19 40 bb
       -0.0021254933 0.00022883313 -0.004085865 -0.00293118
000310 de 8d 7e 3b ff 9c b7 3a 35 c8 8d 3a e9 f6 98 b9
       0.0038841884 0.001400858 0.0010817113 -0.00029175662
000320 66 50 01 3c 96 76 6b 3b 14 73 d4 3c 25 56 94 3b
       0.007892704 0.0035928837 0.02593378 0.004526871
000330 db 65 50 ba e6 c0 c2 bb e5 3e 41 31 95 1a 27 3c
       -0.0007949748 -0.0059434054 2.8120948e-09 0.010199209
000340 2d d9 b8 bb 38 a1 02 bd e7 90 12 ba 91 a4 93 3a
       -0.0056411237 -0.03189203 -0.000559105 0.0011264255
000350 e0 25 9a 3b ba b0 d3 3b bf 5f f2 ba cc 7f 6b bb
       0.004704222 0.0064602764 -0.0018491669 -0.0035934327
000360 1c 48 4a 3b c4 88 00 80 8c 53 13 ba e9 26 7b bb
       0.0030865734 -4.9062e-41 -0.00056200544 -0.0038322753
000370 f1 9b 59 3b d0 06 8f 3c e4 e0 ea ba 64 30 ee 3a
       0.003320452 0.017459303 -0.0017919806 0.001817238
000380 0b f1 89 3c b7 8f 7e bc 51 10 09 3d 46 c2 5d ba
       0.016838571 -0.015537194 0.033462826 -0.000845943
000390 0c 48 33 3a 95 9e b4 bc bb 99 58 3c 47 08 15 bb
       0.0006839044 -0.022048274 0.013220246 -0.002274053
0003a0 a6 2e c6 bb cc 8a 00 00 f6 59 25 3c 5f 65 f4 ba
       -0.0060480414 4.9791e-41 0.010092249 -0.0018645934
0003b0 ad 40 26 3a 51 6c de bb ff 2e 36 bb a3 61 bf 3b
       0.0006342035 -0.0067878147 -0.0027799008 0.0058404966
0003c0 38 8c 40 3c 87 93 16 bd 07 3b 94 3a 5c 95 80 bb
       0.011752181 -0.036761787 0.0011309095 -0.003924055
0003d0 aa 00 9f ba a7 c9 24 bd b9 ba 26 3c 7b be 0e bd
       -0.0012130935 -0.040231373 0.010176354 -0.034849625
0003e0 60 13 da 3b 05 05 f4 3c b1 cc a1 3c 81 ca 66 3c
       0.0066551417 0.02978755 0.019750925 0.014086367
0003f0 49 57 aa 3c be a6 d3 3b 16 94 4b 3b d4 16 38 bc
       0.020793574 0.006459086 0.0031063608 -0.011235911

net.2.bias f4 [128]
000000 08 63 9d 3d 74 db 5c 3d 78 25 5d bd 2d 72 b2 3d
       0.07684904 0.053920224 -0.05399081 0.087131836
000010 48 bc 7f 3d 62 c1 83 bc 13 d4 df 3c d0 7f 02 bd
       0.06243542 -0.016083423 0.027322805 -0.031860173
000020 c0 a1 29 bd be 47 95 3d 7e 7f 24 3c 95 55 82 94
       -0.041414022 0.07289074 0.010040162 -1.3160402e-26
000030 83 c1 bc 3d 3e 69 d1 bc b4 4e 90 3c c3 6e d4 3d
       0.09216597 -0.025562879 0.017615654 0.103726886
000040 d7 98 51 bd 31 b3 e2 3d 16 bb e8 bb c2 6e 00 3d
       -0.05117115 0.11069334 -0.0071023805 0.031355627
000050 25 44 1f bb 45 f0 c0 3d f1 7e a8 3c 65 97 86 3c
       -0.0024302092 0.09420828 0.020568343 0.016429612
000060 97 03 74 3d 06 c5 65 bc fd da 95 3b 04 6c 12 3d
       0.059573736 -0.014024025 0.0045732246 0.035747543
000070 08 1f 76 3c e7 a4 9b bd 03 30 38 3d c4 56 9f 3b
       0.015022047 -0.07599812 0.044967663 0.004862638
000080 bc b9 63 bc 51 45 04 3d b4 2a 4b bd 13 69 b0 3d
       -0.013899263 0.032292668 -0.04960127 0.08613791
000090 82 f8 ac 9f cf 95 14 bd 3d 85 78 bd ba 6a 10 3d
       -7.3255955e-20 -0.03627568 -0.06067394 0.035258032
0000a0 bd 75 bc 3c bf 41 2c bd 36 ed a8 bc d0 3b f2 bb
       0.02300536 -0.042054888 -0.020620923 -0.007392384
0000b0 a4 5e 7f bc ac b2 37 3d fb 2e f1 bc 8c 9b 17 8a
       -0.015586529 0.04484813 -0.029441347 -7.299641e-33
0000c0 76 2e 89 bc b8 e2 0a 3d e8 42 70 bc 1b e3 bc ba
       -0.016745787 0.033907622 -0.014664389 -0.0014410944
0000d0 91 08 f9 bc ae f3 34 3d 94 88 a0 bd 0d e2 74 3d
       -0.030399593 0.044177704 -0.0783855 0.05978589
0000e0 71 14 bf 3d 24 6b d9 3c e6 e1 81 bc e1 db 6d bd
       0.09330071 0.026540346 -0.015854787 -0.05807102
0000f0 27 f6 07 b3 d6 98 af 3d 07 aa 9f bd 8f 84 a5 3c
       -3.165601e-08 0.08574073 -0.07796102 0.02020481
000100 90 56 34 3d cc f4 12 3d e6 46 7e bc 95 78 3e bc
       0.044027865 0.035877988 -0.015519833 -0.011625429
000110 1e 44 02 3d be 72 79 3d 28 b7 98 3d 86 b6 3e 3d
       0.031803243 0.060900442 0.07456809 0.046560787
000120 9d 5d ca bc 8f 7b 9d 3d 9b 7b 32 3d 9c 17 c1 bc
       -0.024702841 0.076895826 0.04357491 -0.023570828
000130 2f 78 21 3d 6c f4 ea 3d 3e 49 64 bd 69 73 1d bd
       0.039421257 0.11472401 -0.05573391 -0.03844014
000140 c5 cd d7 3c 60 35 fb 3c 93 86 35 3c 61 d5 64 3c
       0.026343236 0.0306651 0.011079448 0.013966889
000150 61 17 ff 3c b6 67 f3 bc 65 2c 9f b7 f1 70 52 bc
       0.031139078 -0.02971254 -1.897495e-05 -0.01284431
000160 bc ae 47 3d 86 34 87 3d b2 63 ef 3c 8d 74 42 3d
       0.048750624 0.06601815 0.029222343 0.047474433
000170 7f e5 20 3d 29 f2 0d 3d c7 3e 8b bb a1 4a 79 3d
       0.039281365 0.03465477 -0.004249427 0.060862187
000180 1c 12 89 bb da 2c fe bc 7d 39 4d bd 78 5b c3 3c
       -0.004183067 -0.031027246 -0.050103653 0.023847327
000190 64 4a 1d 3c 69 07 db ba 45 7b e9 3c be 9a fb 3c
       0.009600256 -0.0016710582 0.028501162 0.030713435
0001a0 84 e4 95 3d 47 11 ac 3d 1a 67 27 3d 36 d3 1c b8
       0.073189765 0.08401733 0.04086981 -3.7390004e-05
0001b0 0c bc cc 3c 40 bd 70 3d 7a c1 08 3d 66 a9 14 b8
       0.024992011 0.058774233 0.03338764 -3.5443714e-05
0001c0 86 c8 ce 3c 06 1d bd ba 7b 2a 82 bc 84 85 46 bd
       0.025242101 -0.0014428205 -0.015889397 -0.048467174
0001d0 be 81 36 bc 9f 6e 8f 3c b1 ad 47 3d 1e f5 19 3b
       -0.011139331 0.017508803 0.04874963 0.0023492048
0001e0 cd f0 ab 3c e4 30 f4 bc f7 a3 4a bd 6b 1a 65 3d
       0.020988846 -0.02980847 -0.049472775 0.055933397
0001f0 0f 27 8b 3b 3f b4 68 3d 9a 3a e2 3a 82 c7 2d ba
       0.0042465995 0.05681252 0.0017259896 -0.0006629155

net.4.weight f4 [2, 128]
000000 8d fd a0 3c 63 79 be bc ce a6 ba 3c db c1 30 3d
       0.019652152 -0.023251241 0.022784617 0.043153625
000010 f7 18 12 3e 74 93 0e 3f c4 36 49 bd e9 71 51 bd
       0.14267336 0.55693746 -0.049124494 -0.051134024
000020 d0 38 a3 3d b7 df ba 3d e1 fe 95 3d 9c 80 ea 35
       0.079698205 0.091247015 0.07324005 1.7471789e-06
000030 56 3e 5b bd 99 7d a9 bd c4 63 be bd 2b 14 c1 bd
       -0.053526245 -0.08275909 -0.092963725 -0.09427675
000040 f1 37 1f bd 41 4e 1a be 2b 4b 3c bc 16 24 a2 3d
       -0.03887171 -0.15068914 -0.011492531 0.07917039
000050 97 c6 1c bd 3b b1 85 bd 6d 9b 06 3d 8f 64 1a bd
       -0.038275328 -0.06527945 0.03286307 -0.037693556
000060 2f cb a4 3d 4f 12 f0 3d 2a b5 0e be bc 8b 0f 3e
       0.08046567 0.11722242 -0.13936296 0.14018148
000070 79 70 b1 3d ee 69 5e 3f d3 ce 0e be d7 03 91 bc
       0.086640306 0.86880386 -0.13946085 -0.017702026
000080 7c dd 0b bd 11 99 98 3c 8d 0d 25 be 1f 6f d3 3d
       -0.03414677 0.018627675 -0.1611845 0.10323929
000090 bb 5b a5 b8 ef be 02 3b 46 d2 83 3d 25 8d d2 3d
       -7.884899e-05 0.001995023 0.06436591 0.102808274
0000a0 c3 07 c6 3d 51 9c 05 be 06 1e 02 bd 96 70 79 3c
       0.09669449 -0.13047911 -0.031766914 0.0152245965
0000b0 ca b1 c3 bd 8d 62 c8 bd aa 51 68 bf 1b 34 28 32
       -0.09555395 -0.09784422 -0.9074961 9.7907344e-09
0000c0 41 47 c9 3d 1d 47 c7 bd b1 e9 fe 3c 9c c0 a9 3a
       0.09828044 -0.09730361 0.031117292 0.0012951079
0000d0 16 07 9f 3d e4 12 15 be fd b1 db 3d a9 9c 25 3e
       0.077650234 -0.14557987 0.10727308 0.16173042
0000e0 bb fb 09 3e dc 04 d4 3d e8 01 ad 3d a7 3e 2d 3c
       0.13474934 0.10352489 0.08447629 0.0105740195
0000f0 34 43 00 b8 ef 74 1a be 41 f6 71 bf 82 2f ec 3d
       -3.0580166e-05 -0.15083669 -0.9451638 0.11532499
000100 9d 52 b7 3d 63 ea d1 3c 8c b7 1b be c6 fe f4 3d
       0.08951304 0.02562446 -0.15206736 0.11962657
000110 fa 5a fe bd 76 7b 12 bd 78 f4 1a 3d 91 56 05 be
       -0.12419696 -0.035762273 0.0378308 -0.13021304
000120 e3 d0 ce bd 72 77 93 3d e5 40 e8 bd 44 cb 9c 3d
       -0.10098436 0.07200517 -0.11340503 0.07655957
000130 76 56 c1 bd e3 2a 06 3d bb a8 b2 bc 56 20 16 be
       -0.09440319 0.032755744 -0.021808973 -0.14660773
000140 33 18 40 3d 67 8f b0 3d 48 51 14 be 91 86 26 3e
       0.04689808 0.08621102 -0.14484131 0.1626227
000150 ab bf d9 3d 25 d7 2e 3d 37 69 64 3b ae 1c 1a 3e
       0.10632261 0.042685647 0.0034852752 0.15050003
000160 88 c2 82 3d c3 7d ac bc 1f 3f 69 bb a1 27 03 3e
       0.0638476 -0.021056062 -0.0035590602 0.12808086
000170 89 7a 95 3d 09 cc 0a 3e 49 c0 d3 3a d8 bb b9 3d
       0.07298762 0.13554396 0.0016155328 0.090690315
000180 dd 8d b1 3d 0e 26 21 be c4 86 d5 3d 6c e2 05 3d
       0.086696364 -0.15737173 0.10426095 0.032686636
000190 0f 3c ed bd 51 7d 0c 3c 36 b8 10 3e ed f7 8b bd
       -0.11583721 0.0085748 0.14132771 -0.068343975
0001a0 50 ac e8 3d d3 ec 6f bd e4 ed b8 3d ec 9b 07 3e
       0.11360991 -0.058575463 0.09029749 0.13243073
0001b0 a6 66 63 bd e9 01 cf 3d ee e4 9b ba f2 31 12 3a
       -0.055517815 0.10107786 -0.0011893788 0.00055769004
0001c0 27 04 10 3e fb 1b 18 3e 76 30 7c 3d 9c 4d de bc
       0.14064084 0.14854424 0.061569653 -0.027136616
0001d0 d4 9e 1f 3e 84 b3 04 3e 2f d0 1f be 9a 0d 5e 3d
       0.15587932 0.12959105 -0.1560676 0.05421219
0001e0 44 5b 80 3d 54 d2 98 3d 54 76 a6 bc e2 35 15 3d
       0.062674075 0.07461992 -0.020320095 0.03642834
0001f0 35 3b c7 3d 8c 7b 2f be 02 3c 19 3e 8e 40 ae b9
       0.0972809 -0.17136973 0.14964297 -0.00033235963
000200 8c 89 d6 3d 0c 48 b5 bc 53 ba 1b 3e 43 29 ea bd
       0.10475454 -0.022129081 0.15207796 -0.11433651
000210 14 9d cd bd ec 24 61 3e ad 57 05 3e 6b bd 08 be
       -0.10039726 0.21986741 0.13021727 -0.13353507
000220 c8 25 ea 3d bb 3e 99 bd c7 28 32 be 48 ce b2 b4
       0.114329875 -0.07482668 -0.17398368 -3.3305173e-07
000230 8c 97 26 3e 87 70 0e 3e 03 4e 6b bd 13 af 1c be
       0.16268748 0.13910113 -0.057447445 -0.1530116
000240 b6 11 4b bf f5 4b 64 bd 38 86 13 be eb 87 bb 3c
       -0.793239 -0.0557365 -0.14406669 0.02289196
000250 ed 5a c9 bd 65 7c 1c be ce 47 e2 bd 00 85 08 3e
       -0.09831796 -0.15281828 -0.11048852 0.13331985
000260 88 aa 1a 3e 4e b8 e2 bd 5d 1e 05 bd b8 8f 12 bc
       0.15104115 -0.110703096 -0.03249966 -0.008945398
000270 d6 8d d1 ba f3 64 32 be 27 41 82 bd b1 cc f7 bd
       -0.0015987705 -0.17421322 -0.06360083 -0.12099589
000280 ab 05 a0 bd d4 f3 af bd ff 1c 5c 3d 89 ee 26 3d
       -0.07813581 -0.085914284 0.05373859 0.04075483
000290 fa 49 88 37 de a0 e7 3d 85 40 20 be eb 6e 88 bd
       1.6246911e-05 0.1130998 -0.15649612 -0.06661781
0002a0 54 e9 19 3d 69 be 06 3e 74 6e 0a 3e b4 6f 9e bd
       0.037576035 0.13158573 0.13518697 -0.077361494
0002b0 03 b1 14 be 2d 66 be bd 00 92 0d bd 9f e3 86 30
       -0.1452065 -0.09296832 -0.034563065 9.814477e-10
0002c0 7e 98 f9 bd 17 d8 b6 bc db 21 ab bd 66 5e 9c 37
       -0.12187289 -0.022319837 -0.08356067 1.8640607e-05
0002d0 f8 7f af bc 6b ea a6 3d 0e 1c 6d bd 0c ad 7a bd
       -0.021423325 0.081501804 -0.057888083 -0.061200187
0002e0 e3 d0 a6 3d c0 c4 bc 3d b6 d3 0a be 94 1e 8d 3f
       0.08145311 0.092172146 -0.13557324 1.1024957
0002f0 41 ff 40 b9 53 d0 d5 3d 81 b0 39 3e 06 99 03 3e
       -0.00018405636 0.10440125 0.18133737 0.12851343
000300 b1 53 89 3d cc d1 a1 bd 55 e7 bb 3b 31 ad bf bb
       0.06705416 -0.07901344 0.005734364 -0.0058495034
000310 d6 85 38 3e b2 99 4f be 8a b4 df 3d 14 46 80 3c
       0.18019804 -0.20273474 0.10923107 0.015658416
000320 1c 19 16 be 98 b7 25 be 1f 21 10 3e 2d 17 0d 3e
       -0.14658016 -0.16183317 0.14075135 0.13778372
000330 bb 8c 08 bd 22 e3 28 3e 8c c4 da 3e a4 93 88 3d
       -0.033337336 0.16492894 0.42728078 0.06668785
000340 e6 d0 9c bd 8a a4 73 3b f1 c7 7c bd 34 be 59 bd
       -0.07657032 0.003717693 -0.061714116 -0.053159907
000350 c9 11 af bc f8 e1 0b 3e 6d 2a a7 3d 0d 83 86 bd
       -0.021370785 0.13660419 0.08162389 -0.06567965
000360 e0 f6 97 3d 14 52 1f 3e f2 b9 16 3e ee c1 42 3b
       0.074201345 0.15558654 0.1471937 0.0029717642
000370 d1 6d e6 bc b8 ee 93 bd 8c 78 d4 ba 16 ed 03 3e
       -0.028128536 -0.07223266 -0.0016210242 0.1288341
000380 7e 2f a0 bb ce e3 15 3d 3f 33 1d be 47 6c 24 3e
       -0.004888474 0.036594205 -0.1535158 0.1605693
000390 57 ee dc bd eb 9d ff bc 76 aa d0 bd 10 a9 de bd
       -0.10787647 -0.03120323 -0.10188763 -0.1087209
0003a0 2e 14 60 bd 9c 61 97 3d 49 4e c7 3d 86 8c 90 3d
       -0.054706745 0.073916644 0.097317286 0.07058053
0003b0 5e 9a 08 be ad e2 97 3d 5f 7f fa 3d 90 83 17 3a
       -0.13340136 0.07416282 0.12231325 0.0005779797
0003c0 4d 09 97 bd 28 6b ac bd 80 e2 e6 bd 8c 3b 02 3e
       -0.07374821 -0.08418876 -0.1127367 0.12718028
0003d0 0e 50 09 bd ff c7 0d be 62 2f 10 be 8c b8 fa bd
       -0.03352361 -0.13845824 -0.14080575 -0.12242231
0003e0 1e 00 04 3e 43 bc aa bd fc 1a db 3d 44 8d d7 bd
       0.1289067 -0.08336689 0.10698506 -0.10524991
0003f0 30 51 85 3d 24 83 de 3d c5 72 8d bc 6f eb b7 3a
       0.06509626 0.10864857 -0.01726664 0.0014031957

net.4.bias f4 [2]
000000 a5 a5 7b bb fd cd 47 bd
       -0.0038398292 -0.04878043

net.0.weight f4 [128, 9]
000000 b2 a6 b1 2d c5 06 9f 28 f6 95 10 2d 4f 01 d4 23
       2.0196598e-11 1.7655482e-14 8.21875e-12 2.298564e-17
000010 0e 94 17 a9 dd ce 79 9a e0 16 f4 20 e6 51 70 a1
       -3.3657152e-14 -5.1659096e-23 4.1350345e-19 -8.1423555e-19
000020 da 12 20 24 a6 7a 44 b7 d8 0e ab 32 1c 61 63 b7
       3.4710437e-17 -1.1711067e-05 1.991377e-08 -1.3552864e-05
000030 ee ad 0c 2e fa ab 10 b6 71 fb 20 b1 c4 68 87 33
       3.1986795e-11 -2.1557776e-06 -2.3425992e-09 6.305484e-08
000040 71 b9 a9 35 aa e3 b2 b4 b8 11 93 98 01 63 58 0d
       1.2645452e-06 -3.332073e-07 -3.80165e-24 6.667931e-31
000050 b0 8b 88 8f da 4e 65 00 cb e3 62 96 68 b3 62 9a
       -1.3464441e-29 9.303672e-39 -1.8328013e-25 -4.6880628e-23
000060 51 38 16 1e 13 e3 ab 1f 82 62 02 20 d4 96 25 3d
       7.95258e-21 7.279698e-20 1.1044022e-19 0.040427044
000070 b5 d7 90 bc d3 44 41 ba 77 8d 99 bc 71 11 4d bc
       -0.017680982 -0.00073726213 -0.018744214 -0.012516365
000080 9c b3 79 bd 31 4d 0c be ff 60 e2 bd 61 78 26 be
       -0.060962304 -0.13701321 -0.11053657 -0.16256858
000090 3a 48 25 3a d3 a0 c3 34 41 76 ac 39 69 43 37 34
       0.0006305013 3.6438595e-07 0.00032894503 1.7067727e-07
0000a0 e3 26 5b b9 2b 6b 68 2f bd dd 6e 30 63 b3 dc 35
       -0.00020899954 2.1138351e-10 8.6899005e-10 1.6443486e-06
0000b0 86 d7 86 b4 12 9e e4 b9 6a a3 33 3a 7e 1b 0f 3a
       -2.511626e-07 -0.0004360532 0.00068526587 0.0005459114
0000c0 31 f4 21 3a 4c a0 b9 bb 30 27 15 3b b8 62 bd b9
       0.000617805 -0.005664861 0.0022758953 -0.0003612244
0000d0 a4 3e a9 39 f1 a1 54 3b ce 88 00 00 c0 88 00 00
       0.00032280863 0.0032445157 4.9076e-41 4.9057e-41
0000e0 e9 88 00 00 db 89 00 00 da 03 11 a2 49 89 00 80
       4.9114e-41 4.9453e-41 -1.9653203e-18 -4.9249e-41
0000f0 08 89 00 80 4d 89 00 00 15 a2 00 80 06 0b de bd
       -4.9158e-41 4.9254e-41 -5.8144e-41 -0.10841946
000100 b0 9a ea 3e a3 92 5d 3d 2c 2f f1 be 4f f2 70 bd
       0.45821142 0.05409492 -0.47106302 -0.058824833
000110 b2 01 52 bc 2f f9 b0 3c 35 34 2d bd 9c e5 14 3e
       -0.012817787 0.021603195 -0.042286117 0.14540714
000120 7b df f4 2b fa e7 79 96 fb 67 92 ad c1 4d 7c 97
       1.7399271e-12 -2.0187259e-25 -1.6644455e-11 -8.152373e-25
000130 30 c6 8e 9d e1 cb 94 26 6a 27 db a9 2b 8f 11 af
       -3.779201e-21 1.0324824e-15 -9.732391e-14 -1.3238537e-10
000140 25 46 d2 ae e9 99 9c 27 77 40 cf 1e 87 c9 ba a2
       -9.5621545e-11 4.3465568e-15 2.194364e-20 -5.0628776e-18
000150 2c c7 82 1e cb 26 b3 a6 9c e0 29 21 84 f8 b9 a5
       1.3846661e-20 -1.2431135e-15 5.7556695e-19 -3.2260785e-16
000160 6b 13 f4 22 9f c2 a6 9c 8f 62 59 be 64 39 b4 bd
       6.6156892e-18 -1.1035267e-21 -0.21229003 -0.08800009
000170 6e 40 6a 3e 6e f5 a1 bc 1b 7e cb 3d 1e 4d 16 b7
       0.2287614 -0.01977035 0.09936162 -8.958652e-06
000180 7b 43 74 bc df 8c 58 be a4 60 99 bc 5b f3 f5 b9
       -0.014908667 -0.21147488 -0.01872284 -0.00046911355
000190 6b ac cd 3b cf 1b db bc 2b 9f 7b bb 15 36 8e bd
       0.0062766573 -0.026746659 -0.0038394432 -0.06943909
0001a0 04 b5 d7 ba 99 d1 fb 3c 76 32 f7 bc 18 7d 9a bc
       -0.0016457145 0.030739592 -0.030175429 -0.018858477
0001b0 05 5f 0f 31 24 53 8b 2d 54 0a fe 2d 0d ee a8 ab
       2.0863251e-09 1.5839392e-11 2.8881043e-11 -1.200319e-12
0001c0 c8 74 63 b1 b9 e7 cb b0 64 f7 8f b2 a7 f8 72 34
       -3.309923e-09 -1.4836053e-09 -1.6759891e-08 2.2628466e-07
0001d0 cf e0 4b 2f 28 d9 b8 b6 c6 d3 d8 32 57 4e 50 b5
       1.854261e-10 -5.5089076e-06 2.5242013e-08 -7.760004e-07
0001e0 01 62 a2 b1 2a d0 e9 b5 7b d5 15 36 46 d5 73 37
       -4.7259623e-09 -1.7420437e-06 2.2326992e-06 1.4533585e-05
0001f0 cb 59 6e 36 1e a7 c8 b5 31 d9 81 3d c1 01 c4 3c
       3.551703e-06 -1.4949799e-06 0.06340254 0.023926618
000200 af 2c 83 be 85 97 ac 3c 18 a9 35 3f 2d 3e 85 bb
       -0.25620028 0.021068344 0.7096114 -0.00406625
000210 df ee 1a bb a0 e1 f8 3b 36 14 62 3c cd a2 96 bd
       -0.0023640913 0.007595256 0.013798764 -0.073552705
000220 af 8f 56 3c ac ed 1f 3f 6f af b0 3e 26 6e 18 3f
       0.01309578 0.62472034 0.34508845 0.59543073
000230 d6 76 84 bb df ca 98 bb f4 a9 96 bc fc af c4 3b
       -0.0040424867 -0.004662856 -0.018391587 0.0060024243
000240 85 7a 2a 3d e6 7f 43 3d b8 96 0a bd 01 30 aa bc
       0.04162075 0.047729395 -0.033835143 -0.020774843
000250 29 44 92 3c 66 23 8e 3c 4a 48 b6 bd 3d b3 89 3c
       0.017854767 0.017350864 -0.08900507 0.0168091
000260 64 44 30 3e ce ce 04 be 74 71 65 3c f9 1c 1d be
       0.17213589 -0.12969515 0.0140041 -0.15343083
000270 0e 1c 61 bc d9 04 62 be 4d 75 d4 3b ed 82 14 3c
       -0.013739599 -0.22072162 0.00648371 0.009064418
000280 65 e8 b7 bc 18 7d 7f 3d b2 8d 53 b9 ae 48 22 b9
       -0.022449682 0.062375158 -0.00020175314 -0.00015476599
000290 28 41 b3 b9 b4 f7 50 3a 8d c7 d8 ba d3 9f 71 b8
       -0.00034190086 0.0007971481 -0.0016538963 -5.7607725e-05
0002a0 a5 89 c4 ba a5 c2 c9 39 c0 5d 03 3b 68 9d ca 3b
       -0.0014994635 0.0003848273 0.0020044893 0.006183315
0002b0 21 be 8e 3b 31 89 8f 3e be 01 04 3f 82 9f 88 bd
       0.004356161 0.28034356 0.5156516 -0.06671049
0002c0 47 91 f1 3b ca 02 69 3c de 9a 14 3d 84 56 44 bb
       0.0073720547 0.014221856 0.036280505 -0.0029958794
0002d0 d6 61 28 a9 da 96 8b 9a a8 85 4a 27 b8 b8 8c 1d
       -3.7388353e-14 -5.7732766e-23 2.8105587e-15 3.7248686e-21
0002e0 a9 c4 3a a6 52 04 69 1b f9 6a 94 1c 26 17 0b a2
       -6.479824e-16 1.9274704e-22 9.82147e-22 -1.8850267e-18
0002f0 8f da 81 28 ad ba 89 37 ae a9 1d b7 f5 b7 81 b8
       1.4416662e-14 1.64186e-05 -9.397436e-06 -6.185464e-05
000300 ca 07 01 b6 79 62 17 b8 aa 58 86 37 a8 0f a1 39
       -1.9227032e-06 -3.6092915e-05 1.6015332e-05 0.00030719978
000310 a9 3c 13 38 b1 3c 66 b8 54 72 f3 37 c5 fb 0d 3b
       3.5104025e-05 -5.4892796e-05 2.9021096e-05 0.002166496
000320 ec fe 0e b8 3c a5 7e 37 6b 38 f7 b9 04 5c 20 37
       -3.4092853e-05 1.5178051e-05 -0.00047153546 9.558167e-06
000330 7c 3c 1d ba cf 5f 9d ba 21 9f a4 38 14 0f a2 bd
       -0.00059980876 -0.0012006703 7.8497695e-05 -0.07913032
000340 67 32 7a bc dc 39 61 3e 86 49 02 3f 5f 3f 20 3f
       -0.015270806 0.21994728 0.5089344 0.62596697
000350 b4 9d 11 3b 8f cc ba 3a 3f d2 02 bd 1e aa ae 3a
       0.0022219243 0.0014251637 -0.031938788 0.0013325845
000360 38 01 59 35 c2 2f 67 b4 a4 8c 67 34 98 06 90 b3
       8.0840573e-07 -2.1530926e-07 2.1564716e-07 -6.706722e-08
000370 d2 61 f2 b6 ff fb 11 b5 ef d9 b0 b3 07 a5 85 36
       -7.22355e-06 -5.438341e-07 -8.2352805e-08 3.9829206e-06
000380 9f ea 04 35 09 1d 29 bf 84 8e 6c bd e2 2f 28 3f
       4.951525e-07 -0.6605993 -0.0577531 0.65698063
000390 fb 28 80 3d 3e 2f 66 bc 6f 37 7c 3b 43 04 2b bb
       0.062578164 -0.014049349 0.003848519 -0.002609507
0003a0 2f 6b 45 bc 70 5d 27 bc 9e 0b e7 3d fb aa a7 3d
       -0.01204948 -0.010215148 0.11281513 0.08186909
0003b0 12 23 88 3e 10 61 b2 3e 80 4b 9a bc df d5 20 bc
       0.26589257 0.34839678 -0.01883483 -0.009816616
0003c0 72 c9 39 bd 13 f5 47 bd e3 0e ef bb 58 58 38 3d
       -0.04535813 -0.048817705 -0.007295476 0.045006126
0003d0 29 d0 a0 3d 69 ba 95 3e 11 50 c8 3e 28 2e 6e bc
       0.078522034 0.29243782 0.39123586 -0.014537372
0003e0 58 9c 20 3c 7e 9c 0b 3d d6 5f 04 3d 13 7a 54 3d
       0.0098029 0.03408479 0.03231796 0.05187423
0003f0 c8 9e 73 3e 09 9e d7 bd 4b 56 73 be 35 ea b3 3d
       0.23791039 -0.1052819 -0.23763387 0.08784906

net.0.bias f4 [128]
000000 c3 91 0b b4 2e d5 12 ba f0 19 9d aa bc 83 1b be
       -1.2998412e-07 -0.0005601224 -2.79068e-13 -0.15186971
000010 31 0b 6e bb ec 1b a6 bc 42 40 94 ae 54 d3 c4 3c
       -0.0036322589 -0.020276986 -6.741675e-11 0.02402655
000020 12 76 08 b3 b0 4a a0 b1 9c 38 9d bd 8a 83 b4 bd
       -3.1772352e-08 -4.665104e-09 -0.07676813 -0.088141516
000030 b4 71 d8 b6 5c 7b fd b9 60 3d 57 be 72 70 af be
       -6.4505384e-06 -0.0004834783 -0.21019506 -0.34265476
000040 b8 f4 06 be 41 c4 02 be 09 75 4b bc 2a 19 1c 3c
       -0.1317929 -0.12770177 -0.01241804 0.009527484
000050 44 81 8d b3 16 2e 3a bb 33 99 d4 bb 2d b9 2f be
       -6.5893374e-08 -0.0028408817 -0.0064879893 -0.17160483
000060 36 a7 61 ba e6 3d 89 3a a2 22 cc bd ae 03 d2 bd
       -0.0008607985 0.0010470718 -0.09967543 -0.10254608
000070 ca 67 49 bc f2 78 80 b7 d9 28 43 bb dd 71 57 3d
       -0.012292812 -1.5315109e-05 -0.0029778986 0.052598823
000080 f0 31 8f bd ab 09 86 b7 0c 5b a8 be d2 60 4d b3
       -0.06991947 -1.5978547e-05 -0.32881963 -4.781834e-08
000090 86 67 0d be cb 15 05 bd 04 69 87 94 43 d1 e6 b4
       -0.13809022 -0.032491487 -1.3672938e-26 -4.2993096e-07
0000a0 fc 33 d7 3e 8c 1e 0c bc 78 9d a8 be fc 70 d9 bd
       0.42031848 -0.008552205 -0.3293264 -0.10617253
0000b0 f2 8c ca a2 75 38 a0 bc 67 65 a1 bc b2 70 81 bd
       -5.490144e-18 -0.01955817 -0.019701673 -0.06320323
0000c0 40 56 bf 3d 3b f4 a4 b7 8f c4 55 3c 43 d9 58 bd
       0.09342623 -1.9664052e-05 0.0130473515 -0.052941572
0000d0 88 8a 16 ad be 85 5c 9c a8 85 41 b6 24 eb 02 bb
       -8.557273e-12 -7.296475e-22 -2.883704e-06 -0.001997658
0000e0 66 21 cd bd bb 14 1a 3e c4 8f 05 bd a4 79 17 be
       -0.10016136 0.1504697 -0.03260781 -0.14792496
0000f0 91 3a a9 be 37 d0 3e ae 23 60 8a 3a 13 5d 8a bb
       -0.33052495 -4.338593e-11 0.0010557215 -0.004222521
000100 dc e7 af be 57 f7 b2 be 14 8c ef b1 53 04 9d bd
       -0.34356582 -0.3495433 -6.9717405e-09 -0.076668404
000110 b8 43 c8 bb c8 7f 99 3e 67 c1 b9 b9 c2 e4 03 3d
       -0.0061115883 0.29980302 -0.00035430046 0.032200582
000120 e9 75 de bd 40 7a e8 bc bf 27 d7 bd 01 cb b0 b4
       -0.10862333 -0.028378606 -0.10505628 -3.293026e-07
000130 1b 76 2b be 2f 90 70 af bc ea 63 be ca e5 75 3c
       -0.16744272 -2.1879097e-10 -0.22257513 0.015008399
000140 05 f5 77 be f5 a1 8d b6 95 0e 34 be 8c e0 d7 bc
       -0.24214561 -4.2209817e-06 -0.17583688 -0.02635219
000150 32 ee 9c bc b6 f6 c8 bc bb 76 2a bc 53 45 2a ba
       -0.01915655 -0.024531703 -0.010404284 -0.00064953155
000160 ef 66 9d aa c8 3d 98 bc ab 42 d1 3d 64 4e a1 91
       -2.7960227e-13 -0.018584147 0.10217794 -2.5449633e-28
000170 33 0f 70 b3 40 2b 40 8b bc 4b 3a be 12 70 15 b8
       -5.5893178e-08 -3.7010393e-32 -0.18192953 -3.5628742e-05
000180 ee 6c c4 3e 99 94 19 be a0 bf 1e bd fb af 37 b6
       0.38364357 -0.14998092 -0.038756967 -2.737156e-06
000190 3a b3 a6 3e 06 86 d1 bd 33 d7 68 a7 b3 73 11 bd
       0.32558614 -0.10230641 -3.2313127e-15 -0.03551073
0001a0 1f ad 60 be e1 a8 e7 bd 0c d0 8c bd 01 e9 24 bc
       -0.2194104 -0.11311508 -0.06875619 -0.010065318
0001b0 ac f4 0b a4 9f 4d ce bc 7f 5e 14 3c d5 48 c6 bd
       -3.0348066e-17 -0.025183497 0.009055733 -0.0968186
0001c0 b1 0f 05 bc bd b9 58 3e e5 2e b4 9a 7d 59 10 bc
       -0.008121417 0.21164604 -7.452202e-23 -0.008810398
0001d0 68 c2 fd b9 f8 f9 1a 3c 61 de b0 89 58 37 16 be
       -0.00048400764 0.009459011 -4.2579583e-33 -0.1466955
0001e0 ca b7 30 b7 24 8c bc 95 c8 5b 95 96 dc 25 37 b6
       -1.0533209e-05 -7.61537e-26 -2.413017e-25 -2.7291162e-06
0001f0 d9 ca 5a ab 0d f3 2f 3b 4b b8 45 3e 3c 6c 93 bd
       -7.7730666e-13 0.002684775 0.19308583 -0.071983784

net.2.weight f4 [128, 128]
000000 e1 89 00 80 2f 8a 00 80 f0 88 00 00 c2 14 83 3d
       -4.9462e-41 -4.9571e-41 4.9124e-41 0.064004436
000010 3c 55 13 00 9f 4f 84 05 a7 89 00 00 22 b2 2f bb
       1.775451e-39 1.2442469e-35 4.938e-41 -0.0026809056
000020 1b ab 00 00 f8 88 00 80 e7 ef 2a bd a6 88 13 3b
       6.1381e-41 -4.9135e-41 -0.041732695 0.0022511869
000030 fe 94 00 00 44 89 00 80 d7 fe 07 be f2 e9 58 be
       5.3448e-41 -4.9242e-41 -0.13280807 -0.21182993
000040 da 82 ad bc fa 08 68 3d 54 70 5f a0 28 69 47 bb
       -0.021180559 0.056649186 -1.8926001e-19 -0.0030427668
000050 7d 89 00 80 24 28 96 9e 6d ab b1 01 2d c5 90 be
       -4.9322e-41 -1.589847e-20 6.5265515e-38 -0.28275433
000060 a2 89 00 00 95 0a 83 bd b0 b4 3d 3b bd 83 62 bc
       4.9373e-41 -0.06398503 0.002894681 -0.013825354
000070 bf ea 64 3c 1c 8a 00 80 59 48 89 bd e1 17 63 3d
       0.013971983 -4.9544e-41 -0.06703252 0.055442695
000080 21 af 42 bc 03 89 00 00 9c 4a 2d bd 9b 89 00 80
       -0.011882574 4.915e-41 -0.04230748 -4.9364e-41
000090 51 f3 b9 3c f9 14 32 b3 8b 89 00 80 f7 88 00 80
       0.02269903 -4.146293e-08 -4.9341e-41 -4.9134e-41
0000a0 4c f6 e8 3c 76 6f e8 bd 86 79 a5 bd 88 8f 05 bd
       0.028437756 -0.113493845 -0.080798194 -0.032607585
0000b0 58 89 00 00 19 da c0 ae 55 e1 84 1f c8 48 36 bd
       4.927e-41 -8.769891e-11 5.6276955e-20 -0.044503003
0000c0 1b 7b 6d 3d 55 89 00 00 40 6a 86 bc 4c 78 65 bd
       0.05797873 4.9265e-41 -0.016408086 -0.056022927
0000d0 ab c9 66 21 e2 88 00 80 7e 89 00 00 73 89 00 00
       7.8193936e-19 -4.9104e-41 4.9323e-41 4.9307e-41
0000e0 6b 80 b7 3d a6 c4 29 3c 79 77 36 38 09 c4 b6 bd
       0.08960041 0.010361826 4.350345e-05 -0.089241095
0000f0 89 06 37 be 1c 89 00 80 49 c8 0b 3c 14 89 00 00
       -0.17873587 -4.9186e-41 0.008531638 4.9174e-41
000100 49 8e 57 3e af c6 a7 bd 2d 8a 00 00 86 7e d6 3d
       0.21050371 -0.08192193 4.9568e-41 0.10473351
000110 4e bc 07 82 a3 3c 83 3d b9 88 00 80 4e d9 ee bd
       -9.972274e-38 0.0640805 -4.9047e-41 -0.11662541
000120 1d d1 b0 bd 65 02 8b bd ae 33 00 bd f9 88 00 80
       -0.08633635 -0.06787566 -0.031299286 -4.9137e-41
000130 be 8d a5 bc e9 89 00 00 57 10 00 be 9e 8f 12 3c
       -0.02020919 4.9473e-41 -0.12506233 0.008945374
000140 d0 97 2a be ca 89 00 80 bc 3d 66 3d da 06 16 39
       -0.16659474 -4.943e-41 0.05621122 0.00014307667
000150 2e 0c 05 bc dd 48 4f 2f 4d e7 3b 05 1f 8a 00 00
       -0.00812058 1.8852427e-10 8.835181e-36 4.9549e-41
000160 40 8a 00 00 f7 cc 0d 99 04 a3 bf 3d b9 88 00 00
       4.9595e-41 -7.3309215e-24 0.09357265 4.9047e-41
000170 96 89 00 00 74 99 41 09 71 a2 8e bc fc 88 00 00
       4.9357e-41 2.3303683e-33 -0.017411442 4.9141e-41
000180 d1 3e 1b 3d 95 da 7a 3c 58 54 15 bc bb 88 00 80
       0.037901703 0.015310903 -0.009114347 -4.905e-41
000190 9a b7 1b be 37 55 19 3b f7 88 00 00 20 15 b4 bb
       -0.15206757 0.002339674 4.9134e-41 -0.0054956824
0001a0 6d 4c 48 bd 9c 84 c7 ba cd 99 86 bd 72 c7 95 bd
       -0.04890101 -0.0015222016 -0.06572304 -0.07313432
0001b0 de 8d 00 80 34 90 17 ba 48 4a 20 bc 10 57 0a be
       -5.0892e-41 -0.0005781681 -0.009783335 -0.13509774
0001c0 cd 89 00 00 a2 c7 c6 3b 41 66 20 99 a3 a4 9e bd
       4.9434e-41 0.0060662786 -8.292456e-24 -0.07746246
0001d0 11 89 00 00 aa 9f ba 39 70 89 00 00 ae 6a 8a bd
       4.917e-41 0.00035595644 4.9303e-41 -0.06758629
0001e0 8b 89 00 80 6d a4 93 13 5c 61 b6 92 6c 89 00 00
       -4.9341e-41 3.7270153e-27 -1.1509816e-27 4.9298e-41
0001f0 24 89 00 00 ee 39 90 bd 7e 55 e1 3d 68 a0 dd 3c
       4.9197e-41 -0.07042299 0.110026345 0.027054027
000200 28 19 06 80 26 a0 00 80 26 ae 00 00 30 a7 e6 a5
       -5.60037e-40 -5.745e-41 6.2473e-41 -4.001193e-16
000210 d5 f0 01 00 ef 2d 06 00 a0 9f 00 80 61 17 f3 a6
       1.7823e-40 5.67491e-40 -5.7263e-41 -1.6867849e-15
000220 e7 99 00 00 f1 60 04 80 6d 68 af a6 1d 71 03 a1
       5.521e-41 -4.02118e-40 -1.2171369e-15 -4.453423e-19
000230 aa a2 00 00 fc 0e 00 80 f9 82 76 27 1c bd 82 a8
       5.8353e-41 -5.375e-42 3.4210358e-15 -1.4514912e-14
000240 8f d3 8a a6 82 0c 30 26 0a c2 02 80 54 67 26 28
       -9.633017e-16 6.107922e-16 -2.53279e-40 9.237257e-15
000250 5e 0e 00 00 ba 4a 01 00 dd b7 04 80 8d 32 01 b0
       5.154e-42 1.18642e-40 -4.333e-40 -4.7001764e-10
000260 c9 88 00 00 1c ea 17 25 fb 27 2f a8 85 6a 10 a8
       4.9069e-41 1.3176482e-16 -9.723121e-15 -8.0167035e-15
000270 0a 78 f6 26 2d 89 00 80 b3 e7 bf a6 39 85 90 a4
       1.7102216e-15 -4.921e-41 -1.331609e-15 -6.267573e-17
000280 75 ee 26 a6 ce 6c 03 80 bd 04 7e 26 28 bc 00 80
       -5.791599e-16 -3.14538e-40 8.8130374e-16 -6.7498e-41
000290 6c b9 09 26 45 b9 b6 00 d6 54 03 00 b9 a2 00 80
       4.7782717e-16 1.6780522e-38 3.0594e-40 -5.8374e-41
0002a0 83 3d 8a 2b 77 69 20 a6 ca 31 66 a7 2d 3b 1a 22
       9.822563e-13 -5.5654083e-16 -3.1945903e-15 2.090222e-18
0002b0 16 96 00 00 3e 3c 03 00 9c 51 00 00 07 9e 0c a8
       5.384e-41 2.97117e-40 2.9276e-41 -7.805828e-15
0002c0 94 80 b7 25 98 58 00 00 5f 23 0e 27 76 b8 3d 28
       3.1832568e-16 3.1781e-41 1.9725633e-15 1.0531606e-14
0002d0 68 2e 2f 81 cb 88 00 00 6e b5 01 00 fe 0d 01 00
       -3.2175719e-38 4.9072e-41 1.5692e-40 9.6855e-41
0002e0 ab af 72 26 8a 9a d6 26 b3 c6 00 80 67 a1 e0 27
       8.419869e-16 1.4891121e-15 -7.128e-41 6.2347482e-15
0002f0 80 7c 28 28 ba a2 00 00 db 08 51 26 a2 ae 00 00
       9.35287e-15 5.8375e-41 7.2523443e-16 6.2646e-41
000300 a0 5c 8c a7 0d 31 13 a6 45 0c 02 00 b9 82 03 25
       -3.895823e-15 -5.1067346e-16 1.88072e-40 1.1406729e-16
000310 11 63 03 80 08 a8 66 28 d4 8f 01 80 25 9a dd a5
       -3.11045e-40 1.2804001e-14 -1.43431e-40 -3.844184e-16
000320 e7 81 c4 24 19 7f 08 a8 84 86 e6 26 e1 91 00 00
       8.5221513e-17 -7.5770765e-15 1.5995917e-15 5.2331e-41
000330 56 90 14 26 9e 8b 00 80 88 fa a1 a8 76 2f 70 26
       5.1543427e-16 -5.0085e-41 -1.7983241e-14 8.333105e-16
000340 85 b0 de 27 57 af 00 00 b8 a8 3d a6 5b 6f bf a2
       6.180876e-15 6.29e-41 -6.5801204e-16 -5.1888556e-18
000350 89 00 1a a6 3b 6e 03 80 ff 9d 00 80 ec a8 04 80
       -5.343021e-16 -3.1505e-40 -5.6678e-41 -4.2794e-40
000360 dd 29 06 00 6d bb 00 00 6d a3 5f 26 de b2 01 80
       5.6603e-40 6.7236e-41 7.759015e-16 -1.56001e-40
000370 a1 46 00 80 68 17 00 00 e5 7c 07 a7 a6 4e 01 00
       -2.5337e-41 8.397e-42 -1.880272e-15 1.20049e-40
000380 ba 85 b4 2b 7b a0 7f a8 e4 85 34 25 19 65 03 00
       1.2826886e-12 -1.4190142e-14 1.5657875e-16 3.11773e-40
000390 e4 16 43 26 25 da 1d 26 ee 96 01 80 0e fe 96 a5
       6.768524e-16 5.476596e-16 -1.45979e-40 -2.6193006e-16
0003a0 5a 66 ab a7 f3 4b 67 a5 e9 97 20 a7 c4 f9 08 25
       -4.7573004e-15 -2.0061789e-16 -2.2286811e-15 1.1880744e-16
0003b0 62 7e 04 00 61 47 bd a5 14 63 22 a7 ad 15 1d 28
       4.1268e-40 -3.2834642e-16 -2.2535727e-15 8.719951e-15
0003c0 2a 8b 00 80 ac 0f c5 26 e1 61 04 80 bd 45 63 27
       -4.9923e-41 1.3673869e-15 -4.02454e-40 3.1540384e-15
0003d0 f1 5d 04 00 cc 96 dc 24 41 f2 01 00 7a e4 1f a6
       4.01042e-40 9.566525e-17 1.7874e-40 -5.547385e-16
0003e0 8b 7b 00 80 52 76 00 80 80 ca 02 00 e7 d0 00 80
       -4.4319e-41 -4.2445e-41 2.56314e-40 -7.494e-41
0003f0 02 81 01 00 d3 9a c4 26 3f 35 0d 28 d9 3c b8 26
       1.38115e-40 1.3642197e-15 7.838618e-15 1.2784058e-15
